CNNBrainTumorModelVGG16.tflite (tflite, 460856 bytes, 9 tensors)

BrainDetectionModel/activation/Relu;BrainDetectionModel/bn0/FusedBatchNormV3;BrainDetectionModel/conv0/BiasAdd/ReadVariableOp;BrainDetectionModel/conv0/BiasAdd;BrainDetectionModel/conv0/Conv2D f4 [32]
00000000: 1241 bbbf 44b5 e13d 020d a3be a8f5 d43f
00000010: 310a 163f 2d45 0440 94f9 b4bf ad3f e93f
00000020: ae92 99bf a56b 963f 97cf d23e da15 d53f
00000030: 7345 cf3f c0a6 04c0 f872 233f 126e c5bf
00000040: 331f 26c0 bcd9 ed3f 4d93 cabf 9378 20c0
00000050: a5bb f33f c42f 1240 08f8 e63f cd3a 72bf
00000060: 4e4c a0bf 4355 75be 76a2 f73f e222 f3be
00000070: 8bba f6bf c7d8 0540 f6cf 2dbf ed86 0140
-1.4629233 0.11020902 -0.31845862 1.6637468 0.586093 2.0667222 -1.4138665 1.8222557
-1.1997888 1.17516 0.41174003 1.6647294 1.6193069 -2.0726776 0.63847303 -1.5424216
-2.5956542 1.8582072 -1.5826203 -2.5073593 1.904164 2.2841654 1.8044443 -0.9462097
-1.2523286 -0.23958306 1.9346454 -0.4748755 -1.9275678 2.091356 -0.6789545 2.0238602

BrainDetectionModel/activation_1/Relu;BrainDetectionModel/bn1/FusedBatchNormV3;BrainDetectionModel/conv1/BiasAdd/ReadVariableOp;BrainDetectionModel/conv1/BiasAdd;BrainDetectionModel/conv1/Conv2D f4 [64]
00000000: 0667 a63f 1e35 893f 2d81 8bbf 1e5a 03c0
00000010: 1a82 343f 0584 773f 992c 703e 009c 973f
00000020: b3a7 94bd 711e b13e 42f4 8cbd c846 43c0
00000030: 5a99 c5bf e855 8b3f a4ee 0140 9380 823f
00000040: 77c7 2a3f 28c8 cb3f abfb 5e3e 7982 02bf
00000050: 178b e2be 7f88 2c40 c2ff f23f e5a7 ddbf
00000060: f560 7c3f ad75 d83f 3851 a53f 7926 663f
00000070: 41d9 febf b7df 0b40 677d c03e 1850 9e3e
00000080: 297f af3f 777d 893f 1eda 04c0 2781 69c0
00000090: c939 00bf 8435 9e3f d597 0f40 51b6 14c0
000000a0: 5ebe 17bd 89c4 773f 85b7 0e3d 314c 3abf
000000b0: 26fe e63f 4edb a03f 27c3 293f cd39 623f
000000c0: 0c04 d73f 8a47 97be cc28 12bf 63bd 873f
000000d0: d377 8d3f 9565 d93e 5ee2 4a3f 32ad 743f
000000e0: f50c 4dc0 77d6 0f3f 2504 9fbe 3e29 1c3f
000000f0: f4a1 2a3f 7393 223f b711 60c0 347a d0bd
1.300019 1.0719335 -1.0898796 -2.0523753 0.7051102 0.9668582 0.23454513 1.1844482
-0.072585486 0.34593537 -0.06882526 -3.0511951 -1.5437424 1.0885592 2.0301905 1.0195488
0.6671061 1.5920458 0.21775691 -0.50980335 -0.44246742 2.695831 1.8984301 -1.7316862
0.98585445 1.6910912 1.2915411 0.89902455 -1.9910051 2.1855295 0.37595674 0.30920482
1.3710681 1.0741414 -2.0758128 -3.6485078 -0.50088173 1.2360082 2.243642 -2.3236277
-0.037046783 0.96784264 0.034842987 -0.7277251 1.804631 1.2566926 0.66313404 0.88369447
1.679811 -0.29546767 -0.570935 1.0604671 1.1052192 0.42460313 0.7925166 0.95576775
-3.2039158 0.5618662 -0.3105785 0.6100043 0.6665337 0.6350624 -3.5010812 -0.101795584

BrainDetectionModel/activation_2/Relu;BrainDetectionModel/bn2/FusedBatchNormV3;BrainDetectionModel/conv2/BiasAdd/ReadVariableOp;BrainDetectionModel/conv2/BiasAdd;BrainDetectionModel/conv3/Conv2D;BrainDetectionModel/conv2/Conv2D f4 [128]
00000000: 08d6 b6bf bff1 a93f ffba fe3e d86d 52bf
00000010: 8b72 d9bf 7ea9 9d3f 8ba2 c8bf da35 abbf
00000020: be62 29c0 8222 9cc0 c973 f7bf 3858 cfbf
00000030: b28c a0bf df45 bc3f ee27 77bf d25d 7abf
00000040: 9dc5 e8bf acee 0bc0 704d 72bf 8a6a eabf
00000050: 0c28 02bf e57d 173f 3206 01c0 726e 1ac0
00000060: e62f cd3f 0711 38bf 5cd4 17be 7325 4abf
00000070: 9cb2 8ebf c900 fabf b464 1fc0 8573 90bf
00000080: 2911 d93e db22 5340 7d33 183e e47b ba3f
00000090: b80c b5bf 2e07 bc3e 1859 f1bf 10a0 cb3e
000000a0: 05d9 d93f 3284 45be 8573 5cbb e187 e1bf
000000b0: 3fb9 afbf dfee 88be c878 93bf 6934 71bf
000000c0: d416 783f 47b6 a7bf 8d2d 323d d8c1 42c0
000000d0: 842a 5e3e 147c 0fc0 6462 5fc0 88be 1cc0
000000e0: 22ae 7ac0 eea2 37bf 0eda b13f d839 22bf
000000f0: dfd2 0bbf 4406 1ebe f79a 27c0 7288 d23e
00000100: 2957 aabf 5981 9c3f f379 79c0 5bce edbf
00000110: e444 34be 1960 84bf a07d 05c0 cfa2 2f3f
00000120: 92bf aa3e 1a4b abbf d519 6bbf 0580 f8bf
00000130: 9d1f 2cc0 f3d8 bd3e e85c 03bf 05f1 fbbf
00000140: 9fe7 3fc0 8074 0540 b5bb 3c3f 2a28 a2bf
00000150: 9253 31bf 3066 23c0 c448 78bf 16ed 42c0
00000160: 24c9 b3bf 9d7a adbf b2dc 913f 7a9d 2a3e
00000170: 20e8 58bf 39c3 6e3f bcf3 a9c0 71d3 a7bf
00000180: 2312 933f 88ea d73f 9c47 f23f 113a 80bf
00000190: a387 8d3f 5773 e5be d384 98bf 46d4 8abf
000001a0: 2c0d 9a3e 8e51 2cc0 ba61 babf 2814 a5bf
000001b0: c785 b4c0 2249 eabf 99c3 83be e411 5a3f
000001c0: 94c9 1c3f 817d 82be 80a3 a9bf 8bd8 abbe
000001d0: 5583 96bf 08ed 2f3e b768 6cbf 590f 713f
000001e0: b86a 00c0 8a99 dd3f b2e7 78bf 9973 06bf
000001f0: 9762 2ac0 5eaf 04c0 8305 9a3f b5d9 f2bd
-1.4284067 1.32769 0.49752042 -0.8219886 -1.6988081 1.231735 -1.5674604 -1.3375809
-2.6466517 -4.8792124 -1.933221 -1.6198797 -1.2542937 1.4708823 -0.965453 -0.9779941
-1.8185307 -2.1864424 -0.9464941 -1.8313763 -0.50842357 0.59176475 -2.0160031 -2.412991
1.6030242 -0.7190098 -0.14827102 -0.7896339 -1.1148257 -1.953149 -2.4905214 -1.1285254
0.42395905 3.2990024 0.14863391 1.4569058 -1.4144506 0.36724228 -1.8855314 0.39770555
1.7019354 -0.1928871 -0.003363819 -1.7619592 -1.3728408 -0.26744744 -1.1521235 -0.94220597
0.9690983 -1.3102502 0.04350047 -3.0430813 0.21695906 -2.2419481 -3.4903803 -2.449129
-3.9168782 -0.71732986 1.389467 -0.6336951 -0.5461864 -0.15432078 -2.6188333 0.41119725
-1.3307849 1.2226974 -3.8980682 -1.85786 -0.17604405 -1.0341827 -2.0857925 0.686078
0.33349282 -1.3382294 -0.9183629 -1.9414068 -2.6894295 0.37079582 -0.5131364 -1.9682928
-2.998512 2.0852356 0.7372392 -1.2668507 -0.69268143 -2.553112 -0.9698603 -3.0457206
-1.4045758 -1.3553044 1.1395476 0.16661635 -0.84729195 0.93266636 -5.3110027 -1.3111402
1.148991 1.6868448 1.8928103 -1.001772 1.1057018 -0.4481456 -1.1915535 -1.0846031
0.30088174 -2.6924777 -1.4561074 -1.2896776 -5.6413302 -1.8303568 -0.25735167 0.8518355
0.61245084 -0.25486377 -1.3253021 -0.33563647 -1.1758829 0.17180264 -0.9234728 0.94164044
-2.0065136 1.7312481 -0.9722854 -0.5252014 -2.6622674 -2.0732036 1.2032932 -0.118579306

BrainDetectionModel/activation_3/Relu;BrainDetectionModel/bn3/FusedBatchNormV3;BrainDetectionModel/conv3/BiasAdd/ReadVariableOp;BrainDetectionModel/conv3/BiasAdd;BrainDetectionModel/conv3/Conv2D f4 [128]
00000000: b83d e8bf 502e 8dbf 8695 f8be fc44 bfbd
00000010: 29ef 91bf e65f 3ebe 0c99 7fbd 695a 273e
00000020: 0b59 e4bf 82d3 c7bf 4c68 89be feae 41be
00000030: 9ff9 87bf 53eb 4dbd 5ff6 6abf 9d42 94bf
00000040: cc6a 78bf 7468 d3be 5f37 8ebf 5be8 73be
00000050: f7c9 1dbf 04b1 3cbf 9be9 4fbf fa3c 51bf
00000060: ec58 27bf b5c0 39bf 112c 173f 7d42 5bbf
00000070: 3f79 ecbe eb27 1fbf 02a6 00bf 2df3 31bf
00000080: 64c9 283f c8a0 81bf a260 60bf 451f 9c3e
00000090: 6e9a 55be bc7b f0bd b307 7fbe efef 9ebe
000000a0: 6ec8 42bf 06aa b0bd 0471 04bf 9bf2 54bf
000000b0: cc3d debf 1f57 66bf 5fab bdbe 9ad9 8ebf
000000c0: 80b2 c9bf b873 65bf 1bca bbbf 071e 6abf
000000d0: ffff c6be 073a d1be 6a45 3bbf 1cd0 cbbe
000000e0: b229 20bf ab7d afbe 3767 37be acd5 bdbf
000000f0: a930 8a3e a27a 713d 7e5a 35bd 3777 2ebf
00000100: c064 33bf 5b50 94bf 942d 713e b7c2 acbe
00000110: 737c 8fbe b4f9 e6be a254 aabf 3e59 38bf
00000120: 77e9 05be 56be bebe 5ebb 87bf 142e 76bf
00000130: cd71 ec3e 9902 febc 76ae 7abf a206 2abf
00000140: 40d6 b0be 5f83 86be ea25 9bbf 523c 28bf
00000150: eccc a6bf acaf 3abf cbf5 febf a7e7 a6be
00000160: 3373 03bf b1da d2bf 33eb 57bf 9a97 e4be
00000170: f118 8abf 7ed4 7abe 88ee 0ebf df6a 57bf
00000180: 9b46 57bf 4ace 05bf 4695 b6bf 8ef1 0cbf
00000190: 4d74 963d 1051 3abf 3947 38bf 78ed debe
000001a0: f4f4 35bf 0198 4bbf 1c81 93be 7087 83bf
000001b0: 5442 40bf 30a9 1e3f dbd8 9abf fc03 f0be
000001c0: 4417 00bf 412c 75bf bd90 bfbf aff8 b2be
000001d0: 866e 00bf 7976 89be 1cde 18bf 6359 37bf
000001e0: 4c4d dcbe 9e58 07bf b42e 4abf 976c 18bf
000001f0: 9939 02bf 2280 06be b022 0ebf d5ea 64bf
-1.8143835 -1.1029758 -0.48551577 -0.093393296 -1.1401111 -0.1859127 -0.062401816 0.16343082
-1.7839674 -1.5611422 -0.26837385 -0.1891441 -1.0623053 -0.05027325 -0.9178218 -1.1582829
-0.9703796 -0.4129063 -1.1110648 -0.23819105 -0.616363 -0.73707604 -0.8121583 -0.8173367
-0.6537006 -0.7255967 0.59051615 -0.8564833 -0.46186253 -0.62170285 -0.5025331 -0.6951168
0.659323 -1.0127192 -0.8764745 0.30492607 -0.20859692 -0.117423505 -0.24905281 -0.3104243
-0.7608708 -0.086261794 -0.5173495 -0.83182687 -1.7362609 -0.89976686 -0.37044808 -1.1160157
-1.5757599 -0.896297 -1.4671053 -0.9145207 -0.38867185 -0.40864584 -0.7315279 -0.39807212
-0.6256362 -0.34275565 -0.17910467 -1.4830832 0.2699025 0.058954842 -0.044275753 -0.6815066
-0.7007561 -1.1587023 0.23552543 -0.33742306 -0.28024635 -0.45112383 -1.3307078 -0.7201117
-0.13077341 -0.3725459 -1.0604055 -0.9616406 0.46180573 -0.031007098 -0.97922456 -0.6641637
-0.3453846 -0.26272103 -1.2120945 -0.6571704 -1.3031287 -0.72924304 -1.991876 -0.32598612
-0.51347655 -1.6472989 -0.8434326 -0.44646913 -1.0788862 -0.24495122 -0.5583272 -0.8414745
-0.8409211 -0.522679 -1.4264305 -0.55056083 0.07346401 -0.7277994 -0.7198368 -0.4354055
-0.71076894 -0.79528815 -0.2880944 -1.0275707 -0.7510121 0.6197691 -1.2097429 -0.4687804
-0.500355 -0.9577065 -1.4966046 -0.34955356 -0.50168645 -0.268482 -0.5971391 -0.7162077
-0.43027723 -0.52869594 -0.78977513 -0.59540695 -0.5086914 -0.13134816 -0.5552168 -0.89420825

BrainDetectionModel/conv0/Conv2D f4 [32, 7, 7, 3]
00000000: a785 06bd 1564 9cbc e5c8 03bd c240 15bd
00000010: 189f f1bc 1f82 94bc 6627 06bd a4d1 77bc
00000020: 1830 d5bc 87a2 c53c 08c1 043d 87a1 cd3c
00000030: 9823 983c 20fd fa3c 08d4 d73c 7e6b 8eb9
00000040: a5e2 153c 8d87 54ba 3e67 84bd 222f 68bd
00000050: 8570 85bd 2b37 77bc 776f f6b9 f7ce 1bbb
00000060: 91b4 12bc 6de6 0b3b f5c8 cd3b 9da8 2b3c
00000070: 8798 243c eaea a03c 6516 4f3d b3ca 643d
00000080: 97ca 1a3d 67a0 243d a545 203d c664 183d
00000090: 86d8 ed3c c300 133d e0e7 d73c 009b 9c3b
000000a0: 3672 f43b a87b 02bb e87f 9bbc 891d 36bc
000000b0: 8217 24bc 1ceb bf3b 9a85 513c 3d76 9f3c
000000c0: 4d2c bc3c 28db 093d bda5 013d 2797 9b3d
000000d0: bc0a 9b3d 96b7 903d 3792 a33d 8ecc b03d
000000e0: f282 963d 5c59 893d f6c6 8e3d 3532 753d
000000f0: c6ae 583d df15 4b3d e5c9 3d3d 31f8 9f3b
00000100: 3645 db3b 9e87 54ba 5331 273d 60f5 413d
00000110: fa00 383d 2ca5 703d 1388 683d cecc 653d
00000120: cd3a bb3d 9561 cd3d 35dd b93d a307 ee3d
00000130: 6545 fb3d e56a 023e 6688 b03d 21f7 cd3d
00000140: 1562 b33d c6f5 633d 5c9e 743d 9fc5 873d
00000150: cdbc 4eba 6770 4e3c 9d73 9c3b fed6 253d
00000160: 2b95 413d 37e2 253d 3205 8e3d ab94 a13d
00000170: c30d 903d ab28 d33d 4ea7 ee3d 6b3a e43d
00000180: 3a2e e73d e915 e13d c8e6 da3d f606 8e3d
00000190: 5262 9f3d b921 913d 3cc7 1a3d 3a14 433d
000001a0: e9d3 2f3d 6e04 5fbc 5e6e 69bc 4f27 eabb
000001b0: 7ba4 d83c 02fa 183d fd68 213d 9177 8b3d
000001c0: 3fa8 9b3d d2b2 893d 1bff ce3d 3d04 f33d
000001d0: 3649 e43d c59c b83d 342a aa3d 66c6 9a3d
000001e0: c93f 423d d58b 603d 8f55 2e3d ab30 cd3c
000001f0: 1135 9b3c 59b0 973c 54f7 c5bc d64d 8cbc
00000200: 29a9 babc 292c 8e3c 9543 cf3c cf2d e33c
00000210: 76d7 2a3d bce2 643d 9c4b 273d 047e 8a3d
00000220: 5dc0 8b3d c86e 733d 85fa b93c 602d 953c
00000230: 9346 b93c 67d4 13bc 3fa3 45bb ef32 dfbb
00000240: dcad 47bd 45dc 28bd 57cc 49bd 590f 7f3e
00000250: 3df7 823e 0766 783e 582a af3d b03a 593d
00000260: 9cbc 613d bf90 b23c 43d6 ac3b 8598 04bc
00000270: 44d0 b4bd fa3e b3bd 62bd 90bd 5e9b debd
00000280: 087f a6bd 6d44 bfbd bbf8 d7bd fe4c d8bd
00000290: 1585 17be 12c7 6fbe 48ba 84be 628a 88be
000002a0: 16b0 913e 9c56 8f3e 2599 843e 32d5 623e
000002b0: 86bc 5c3e 90b8 2a3e 062a 7d3d 049b 983d
000002c0: 3a82 9f3d 710d b9bd a52f cbbd 6329 e8bd
000002d0: 126c dbbd 3f9c ccbd fb58 14be b097 0cbe
000002e0: 6f45 41be 2c8b 46be aa44 9bbe 4f6f 9bbe
000002f0: 1c76 a6be c65d b73e cd46 a23e 6000 9e3e
00000300: 81d2 893e ffe1 863e fd88 823e fb4d 1a3e
00000310: 5d85 0d3e cf80 d53d c333 c1bd de21 b9bd
00000320: 8421 dabd 3039 04be d108 0dbe 6fb8 16be
00000330: b2ac 63be 440b 59be 9b40 82be bc18 b1be
00000340: a342 bebe 6c0f cebe c84b c83e 4ca8 bc3e
00000350: 0f5d aa3e 0972 883e 2b07 823e 60bc 543e
00000360: dd5a bc3d 61c6 873d b549 193d b94a 24bd
00000370: 6d12 73bd 53a4 90bd 0507 c9bd a6d0 51bd
00000380: 46a0 d5bd 6fcf 44be b8c0 49be 4e06 59be
00000390: 4dd3 97be d146 b7be 2e0e c0be 06d5 ac3e
000003a0: 87bf 9b3e f08e 9d3e 3fec 393e 668b 223e
000003b0: 0bfc 283e b581 293e 64db e03d 448c b83d
000003c0: 7b5a 8f3d 4073 8c3d 7c07 5e3d d28a f73a
000003d0: bc18 a43c 3d3d a4ba 4d6d ebbd 818b 1cbe
000003e0: f3aa 35be 2090 b0be b753 c8be a7e4 cabe
000003f0: 5783 253e 1149 393e 1855 2a3e c12e b23d
-0.032842305 -0.019090692 -0.03217401 -0.03643871 -0.029494807 -0.018128453 -0.032752417 -0.015125666
-0.02602391 0.02412535 0.03241065 0.025101436 0.01857166 0.030638278 0.026346222 -0.00027164439
0.009148275 -0.0008107357 -0.064650044 -0.056685574 -0.06515602 -0.015088837 -0.00047003824 -0.0023774484
-0.008954183 0.0021347061 0.0062800595 0.010477212 0.010046131 0.019643266 0.050558466 0.05585737
0.03779086 0.040192034 0.03912892 0.03720548 0.02903391 0.0358894 0.026355684 0.0047792196
0.007459904 -0.001991013 -0.018981889 -0.01111544 -0.01001537 0.0058568846 0.012788201 0.01946556
0.022970343 0.03365627 0.0316522 0.075971894 0.07570407 0.07066266 0.07986873 0.08632766
0.073491946 0.06706497 0.069715425 0.059862334 0.052901052 0.049581405 0.04633512 0.0048818816
0.0066916 -0.0008107367 0.040818524 0.04735315 0.044922806 0.05875127 0.056770395 0.05610352
0.09142075 0.10028378 0.09075395 0.1162255 0.12269095 0.1273609 0.08619766 0.10056902
0.08758942 0.05565431 0.059721336 0.0662949 -0.000788641 0.012600041 0.0047745244 0.040488236
0.0472614 0.04049894 0.06934585 0.07889684 0.07033875 0.10310491 0.116530046 0.11143955
0.11288114 0.10990507 0.10688549 0.069349214 0.07782425 0.0708651 0.03778766 0.04762671
0.042926703 -0.013611896 -0.014247505 -0.007145799 0.026445618 0.0373478 0.039406765 0.06809915
0.0760045 0.067235604 0.10107251 0.11866043 0.111467764 0.090142764 0.08308831 0.07557373
0.04742411 0.054820854 0.042562064 0.02504762 0.018946202 0.018516706 -0.024165787 -0.017126959
-0.02278574 0.017355042 0.02530078 0.027731804 0.041709386 0.055880293 0.04084359 0.06762317
0.068238 0.05943182 0.022702465 0.018210113 0.02261666 -0.009022809 -0.0030157117 -0.0068114917
-0.04874979 -0.04122569 -0.04926714 0.24908198 0.25579253 0.2425767 0.08552998 0.053034484
0.055111513 0.021797536 0.0052745654 -0.008093004 -0.08828786 -0.08752246 -0.07067372 -0.10869478
-0.08129698 -0.09339223 -0.105454884 -0.1056156 -0.1479686 -0.23415783 -0.2592337 -0.26668078
0.28454655 0.27995765 0.2589809 0.2215164 0.21556291 0.16671968 0.061807655 0.07451442
0.077885106 -0.09035767 -0.09921197 -0.11336019 -0.10713972 -0.09990739 -0.14487068 -0.13729739
-0.18874143 -0.19389027 -0.30325824 -0.3035836 -0.32511985 0.3581373 0.31694642 0.3085966
0.26918414 0.26344296 0.2549514 0.1506881 0.13820405 0.10424959 -0.09433701 -0.09039663
-0.10650924 -0.1291244 -0.13772894 -0.14718793 -0.22233847 -0.21195704 -0.25439915 -0.34589183
-0.37160215 -0.4024614 0.39120317 0.3684715 0.33274123 0.26649502 0.25396094 0.20774984
0.09197018 0.06629635 0.037423808 -0.040110324 -0.059343744 -0.07062592 -0.09815792 -0.051224373
-0.1043096 -0.19219755 -0.19702423 -0.21193811 -0.29653397 -0.35796216 -0.37510818 0.33756274
0.3041956 0.30773115 0.18156527 0.15873489 0.16502397 0.16553386 0.109793454 0.090111285
0.0699968 0.0685792 0.054206356 0.0018885976 0.020031326 -0.0012530457 -0.11495457 -0.15287592
-0.17740993 -0.3448496 -0.3912637 -0.39627573 0.16163383 0.18094279 0.16634023 0.08700324

BrainDetectionModel/conv1/Conv2D f4 [64, 3, 3, 32]
00000000: e2d3 3abc d1d5 7cbc 644c a8bb 1490 5dbc
00000010: 9106 363a 93f0 8fbc a455 fbbb d39f 21bc
00000020: 2305 c9bb 79d7 48bc 4bff 86bb 560f 0ebc
00000030: d247 fc3c 3578 a63b aa5e 1abc d10a 34bb
00000040: 7de4 993a fdc4 43bc 15bd 0d3c db36 c63b
00000050: 29ea 35bc 3f18 91bc 4eab ebbb 385e e3bb
00000060: c0e6 31bb b8bc 15bc f074 40bc 6fe6 23bc
00000070: 8476 873b fcbd 75bc 895c 2e3a c254 6ebc
00000080: 81ab 77bc 9a3e 95bb aaed 92bc 977f 6ebc
00000090: a873 703a 0eed a2bc 2c97 33bc c417 2fbc
000000a0: d8ba 1cbc 2f14 5ebc 9b47 85bc aa53 07bc
000000b0: bd9e 993c 3126 ecba 9b71 04bc 9cd5 46bb
000000c0: a1e5 d2ba 4203 67bc 6c71 62b9 0ecd c13a
000000d0: 99b4 5dbc 390b 77bc cd4d a0bb 5c75 27bc
000000e0: 11b1 9ebb 1f83 01bc 86c5 48bc 959a fbbb
000000f0: 92a1 2039 6ea6 92bc 1d4c 7cbc 7835 51bc
00000100: dc20 f4bb c70e 4cbb f570 bfbb f975 4bbc
00000110: 29e6 e03a 1b87 65bc a19c 11bc a0ca 2dbc
00000120: 4756 c4bb 50c2 71bc 80a2 8cbb f85f e5bb
00000130: 9a11 643c 6c36 afba fc97 8abb 9ca6 b9b7
00000140: c66f c2bb 7e18 38bc 7591 d2b9 1ff8 5c3a
00000150: 5b3e 5fbc 41ca 65bc 010d a7bb 5397 eabb
00000160: a407 ccba 7af9 14bc 975d 3cbc c5fc 97bb
00000170: 5ca7 7fbb 0f2f 7fbc 8417 e1ba df12 5bbc
00000180: a45d e6bb 79ff 76bc f166 acbb 6312 24bc
00000190: 22ed 113b cbc4 89bc 16bc 11bc ff72 04bc
000001a0: 5852 3abc 50f8 3bbc 6451 68bb f911 1fbc
000001b0: 4741 083c de92 42bb b172 8ebb 22c7 0cbb
000001c0: 131d e4bb c512 2abc 8122 3cbb 9a4f dfba
000001d0: 36d3 60bc 92f4 67bc 78d9 a1bb a435 19bc
000001e0: c427 dfbb 4fcd e1bb 6771 4dbc afd1 82bb
000001f0: af87 06bb a8fe 5cbc efca 303b ea5d 59bc
00000200: b3d0 f0bb 6259 83bc 215b b0bc 75bd 35bc
00000210: 2288 27bb 2cae 81bc f48f 13bc 44d6 ffbb
00000220: d780 efbb 0e8c 4bbc 60f4 91bc 6b29 2fbc
00000230: e051 213b 5cf2 5cbb 0546 f1bb cd33 c4bb
00000240: b271 8fbb a2df 5cbc d124 baba 0b16 e3ba
00000250: 206a 5bbc 28c6 63bc 864d cabb f8bb c4bb
00000260: ba24 95bb f535 0bbc 9bf3 39bc 511c e7bb
00000270: 773d 99bb 3e9d 4bbc f3f2 75bc 98cd 89bc
00000280: edce 3cbc f4f5 7dbc feb3 3abc bed8 62bc
00000290: 2a87 0f3b 96d3 8fbc e115 17bc 9b10 46bc
000002a0: ff0a 35bc 3d7a 2fbc 91b5 24bc 4269 4dbc
000002b0: 6b30 6a3b 96d4 bbbb 20f4 c7b9 ae83 84ba
000002c0: b22b 2cbb 34a7 6bbc 64b8 abba 92fc 8dbb
000002d0: 0974 54bc a763 92bc 9465 34bc 20d1 2bbc
000002e0: e9fd b3bb 180e e6bb 1532 6ebc 5fa6 1cbb
000002f0: becd 36bb bf8b 77bc 0b2f ebbb e3ad 84bc
00000300: 4c6f 02bc c78a 0ebb 5fbc d33a 02b6 1bbc
00000310: 164d 1dbb 57c6 57bc e193 fbbb 23e1 0cbc
00000320: af01 adbb 9384 2fbc b24d 193b 9fab 02bc
00000330: b2f3 833c 2253 afbb 52b2 fa3b 0b40 3abb
00000340: 2cc7 38bb 1df5 32bc 2348 83bb ef6b fbba
00000350: 4ba0 07bc cd8e 44bc ebb9 e6bb b138 07bc
00000360: 1946 1aba d407 debb 0c23 0bbc ca95 04bc
00000370: e517 7a3a 75bc 3abc c40d 043c 4a7b 5fbc
00000380: 2f64 25bc 6dbc 2ebb bd03 d6bb eb35 2dbc
00000390: 005c c13b 17da 8abc d404 0dbc dcd8 14bc
000003a0: c16a 2dbc 6bee 0dbc fa27 03bc 8d3b f1bb
000003b0: e1df 0f3b 700c b3bb ab86 333c bc7a 54b9
000003c0: 4976 b8bb 8cae 42bc 89d1 ecba 37cd 1d3b
000003d0: 9cbd 0bbc 5e60 66bc 2418 afbb 255d d7bb
000003e0: d05f 0cbb 6a80 2ebc 5445 28bc 02ae 0ebc
000003f0: c7cd 66bb 6392 46bc 713e c33b 2191 6ebc
-0.011403056 -0.015431837 -0.0051360596 -0.01352312 0.00069437275 -0.01757077 -0.0076701213 -0.009864765
-0.0061346455 -0.012258404 -0.0041197888 -0.008670649 0.030795965 0.0050802478 -0.009421984 -0.0027472267
0.0011741068 -0.011948821 0.008651038 0.0060490198 -0.011103191 -0.017711757 -0.007192052 -0.006938722
-0.0027145594 -0.009139232 -0.01174663 -0.01000367 0.004134001 -0.014998909 0.0006651362 -0.014546575
-0.015116573 -0.004554582 -0.017935593 -0.014556787 0.00091725076 -0.019888427 -0.010961335 -0.0106868185
-0.009566031 -0.013554617 -0.016269496 -0.008259693 0.01875245 -0.0018016753 -0.008083726 -0.0030339723
-0.0016090163 -0.014099898 -0.00021595292 0.0014785843 -0.013531827 -0.015078359 -0.004892087 -0.010220852
-0.0048428853 -0.007904797 -0.0122541245 -0.0076783397 0.00015318979 -0.017901625 -0.015399006 -0.012769096
-0.007450206 -0.0031136738 -0.005842323 -0.012418264 0.0017158437 -0.014009262 -0.008887441 -0.010607392
-0.0059917304 -0.0147558 -0.0042918324 -0.0069999658 0.013920212 -0.0013367659 -0.0042295437 -2.2131302e-05
-0.0059337346 -0.011236308 -0.00040162695 0.0008429307 -0.013625707 -0.014025272 -0.0050979857 -0.0071591525
-0.0015566242 -0.009092683 -0.011496923 -0.004638287 -0.0039009666 -0.0155751845 -0.0017173146 -0.013371198
-0.007030206 -0.015075558 -0.005261295 -0.010014149 0.0022266586 -0.016817471 -0.008894941 -0.008084058
-0.011372171 -0.0114727765 -0.0035448903 -0.009708875 0.008316345 -0.002968959 -0.0043471684 -0.0021480997
-0.0069614737 -0.010380452 -0.002870709 -0.0017037273 -0.013722232 -0.014157431 -0.0049392544 -0.009351168
-0.0068101604 -0.00689093 -0.012539244 -0.0039922814 -0.002052765 -0.013488449 0.0026976427 -0.01326702
-0.0073490976 -0.016033832 -0.021527829 -0.011092533 -0.002556332 -0.015830122 -0.009006489 -0.007807525
-0.00730906 -0.012423528 -0.017816722 -0.010691027 0.0024615452 -0.0033713793 -0.0073630833 -0.0059876204
-0.004377567 -0.013481053 -0.0014201646 -0.0017325295 -0.013392001 -0.013902225 -0.0061737923 -0.006003853
-0.0045514973 -0.008496751 -0.011349584 -0.007052936 -0.0046765166 -0.012427626 -0.015011537 -0.016821668
-0.011523944 -0.015500534 -0.011395453 -0.013845621 0.0021900632 -0.017556947 -0.009221525 -0.01208892
-0.011049985 -0.010710296 -0.010053054 -0.012537302 0.0035734426 -0.0057321293 -0.00038138125 -0.0010110044
-0.0026271162 -0.014383126 -0.0013101217 -0.0043330872 -0.012967118 -0.017869784 -0.011010546 -0.010486871
-0.005492915 -0.007020723 -0.014538308 -0.0023902876 -0.0027893628 -0.015109002 -0.007177239 -0.016196197
-0.007961106 -0.0021750198 0.0016154161 -0.009503843 -0.0024002246 -0.0131698465 -0.0076775406 -0.008598599
-0.0052797417 -0.0107127605 0.0023392257 -0.007975488 0.016107414 -0.0053504864 0.007650652 -0.002841952
-0.0028194888 -0.010922697 -0.004006402 -0.0019181947 -0.008277963 -0.011996937 -0.007041206 -0.008253262
-0.0005885079 -0.0067758355 -0.008492243 -0.008092353 0.0009540304 -0.011397471 0.008059923 -0.013640234
-0.010094686 -0.0026662603 -0.0065312074 -0.010571937 0.00590086 -0.016949696 -0.008607108 -0.009084906
-0.010584534 -0.0086628 -0.008005137 -0.0073618353 0.002195351 -0.005464129 0.0109574 -0.00020263618
-0.005629335 -0.0118824355 -0.0018067817 0.0024078616 -0.008529093 -0.014061062 -0.005343454 -0.006572383
-0.0021419413 -0.0106507335 -0.010270435 -0.008708479 -0.0035217868 -0.012119862 0.0059583713 -0.014560969

BrainDetectionModel/conv2/Conv2D f4 [128, 3, 3, 64]
00000000: 96c0 2cbc f0ea 8bba 8847 22bb 8107 9abd
00000010: d040 3bbd 1763 87bc 8e86 aabc 3e82 dabc
00000020: 5f2b 573d de44 dbbc 5578 83bc 4e67 093d
00000030: 7cb1 9bbd bc02 b33d 45db 993c 782b 583d
00000040: d4c7 01bb 31d6 25bd affb 96bd 518e e5bd
00000050: c5a0 abbd 0614 87bc 3b58 803d 27f5 69bd
00000060: e343 cabb 142e 303c 7824 0f3d a844 f1bd
00000070: cf0b afbb 045d 4c3d ef5a cabd 2ec1 5cbd
00000080: 5d3b 37bd f0b0 c1bc 3439 543c 9494 e6bc
00000090: 0d43 0abd 9ca3 81bb cfb8 c43c d869 a2bd
000000a0: 9ba6 203b 59ce b7bc b826 0bbd e993 723c
000000b0: f5e5 033d 2e6f dabb 5315 8a3c ad0f b6bd
000000c0: fb71 023c 6d7e cfbd c352 93bc 6ac5 76bd
000000d0: 454b f4ba 8a14 2e3d d18a a1bc 76e1 72bc
000000e0: de02 2dbd 1bb3 7c3d de23 a73c 686c 2d3d
000000f0: 1b1a adbb 24b0 d7ba bf52 5b3d 2fa5 2fbd
00000100: cdca edbc 0766 0c3d 4cab bb3c 8966 3e3d
00000110: 9b69 05bd 2844 44bc dc58 c53c 0ae0 59bd
00000120: a5d9 733c 7aa5 f5bb 5ac9 853c 7b8b 0abb
00000130: f302 c1bb 4983 90bc c05f d4bc fa7e 6b3c
00000140: 26eb 15bc 9bbd 5bbd b236 b5bc ddb2 25bd
00000150: 7efe 87bd 5074 f6bc 4b46 bc3d ce99 9fbb
00000160: 4b04 fabc c7f7 fcbc c74d 423c 96a3 20bd
00000170: 4c54 023c c175 c5bc 9ae3 d5bd 6a1a b1bd
00000180: caaf d5bc 0475 143b 93ac 983c ff73 d5bc
00000190: b403 ca3c 8959 32bd e2fc 8fbc c0e8 453c
000001a0: 7512 623c f44f 44bc b2ba 373d e1a9 8fbb
000001b0: 7883 53bc 7559 29bd 7152 ea3d 9064 613b
000001c0: 9bc2 18bd dcb7 f0bc f405 973c 03c5 763c
000001d0: 74a7 32bd c557 32bc ad2c 833a ff7d cdbc
000001e0: 5480 cc3b 3cdc 0a3e 71aa a83b 7eae 073d
000001f0: 7063 1bbd 27f7 053e 9c24 8b3c fc6c 953d
00000200: 609f 5abc 37ba 8b3d 2337 19bc 3a7c b23c
00000210: 0911 d43d ed4b 283c 8600 58bc 0d24 60bd
00000220: fc99 593a 0032 15bd 8acf 87bd cdc7 183d
00000230: 1302 973b d366 7f3d 0642 d4bc 9196 d63c
00000240: e550 ccbc 7015 e0bb 9d85 c33c ced2 8f3d
00000250: cbd0 bebb babd 32ba 3b67 aebd 3ab2 8a3d
00000260: 8510 05bd 8531 57bc 58b5 a5bc 2f93 283d
00000270: b9f8 57bc 633a 8b3c f702 57bd 337d 9bbd
00000280: ddeb 16bc 89f8 2fbd d8e0 c7bc b5bd 2ebd
00000290: 02ac 113c 26c5 07bd 81c4 51bc 6aa3 263d
000002a0: 1f4e 333c b483 2abd a8e2 803d 8941 a9bc
000002b0: c977 debb b221 edbc ed98 a8bc fa87 aa3d
000002c0: 72f5 c2bc bd4f b73d 9d28 8fbc 88a3 ca3d
000002d0: d003 51bc fd7a 37bd df86 7abc 4a04 bbbc
000002e0: c4b4 14bc 6839 9b3d e0ec 97bc 15a2 8e3d
000002f0: a533 23bd a5e1 aabd e17d 95bc 5d10 3bbd
00000300: 0007 403d 899e 2e3d 5028 afbd 5e56 ae3c
00000310: 3df8 ec3b 0110 323c 41e6 b1bd aad8 3bbc
00000320: 655b aebd 8164 273d fd07 5a3d 4551 683d
00000330: 3a63 4bbc 7b2f c5bb d2c4 b53d c5a6 5c3c
00000340: 8648 a5bd 542f 9dbd 7b47 9e3c c4f5 d9b8
00000350: 0433 4ebc 7cff cabb 5381 efb9 7646 2e3d
00000360: c5b7 853d 28fd a53d af26 aebc 4e02 2b3c
00000370: 71a3 a4bd 0bc1 ad3c 6df6 083d 5a3d 7ebc
00000380: f9d8 9e3d a542 10bc fa46 d6bd 79e3 bd3c
00000390: 9971 b6bb a5c7 673d 9135 bd3d 5d54 f23c
000003a0: 65e9 b5bd 925c 2e3d edbd b53c f297 bdbd
000003b0: c1ee a63d 3ae3 d63c ec56 133b 4237 bb3c
000003c0: 8a52 943d a727 923c c0e6 aabd ba30 2c3c
000003d0: 2fbf 673c f7e0 cabd 4aa6 5b3d 0031 2e3d
000003e0: 0064 68bc 8789 413d 2f73 a4bd e891 d83c
000003f0: 33d9 073d 4364 04bd 0a20 1dbd 0f79 64bd
-0.010543963 -0.0010674875 -0.0024761874 -0.075209625 -0.045716107 -0.016526742 -0.020816114 -0.026673432
0.052531596 -0.026766237 -0.01604859 0.033545785 -0.07602212 0.08740756 0.018781314 0.05277583
-0.0019802945 -0.040487472 -0.073722236 -0.11208785 -0.08380274 -0.01648904 0.062668286 -0.05711856
-0.0061726435 0.010753173 0.03494689 -0.11780673 -0.005341984 0.049893394 -0.098806255 -0.053895168
-0.044734348 -0.02364394 0.012953091 -0.02814702 -0.03375535 -0.0039562713 0.024013905 -0.07930344
0.0024513367 -0.022437261 -0.033972472 0.014805772 0.032201726 -0.0066660857 0.016855871 -0.08889709
0.007961745 -0.10131536 -0.0179838 -0.060246862 -0.0018638155 0.042500056 -0.019719513 -0.014824262
-0.042239062 0.061694246 0.020402845 0.042339712 -0.005282653 -0.0016455692 0.05354571 -0.04288214
-0.029027367 0.03427699 0.02290883 0.046484504 -0.032571416 -0.01197914 0.024090223 -0.053192176
0.0148834335 -0.007496533 0.016331363 -0.0021140266 -0.005890244 -0.017640727 -0.025924563 0.014373535
-0.009150302 -0.05364762 -0.022120807 -0.04045378 -0.066403374 -0.030084759 0.09193095 -0.00487063
-0.030519625 -0.030879868 0.011859364 -0.039218508 0.007954668 -0.024104001 -0.10443802 -0.08647616
-0.0260848 0.0022652755 0.018636977 -0.026056288 0.024659969 -0.04354242 -0.017576639 0.012079418
0.013798346 -0.011981953 0.04485578 -0.004384265 -0.012909763 -0.04134508 0.11441506 0.0034392215
-0.037294965 -0.029384546 0.018435456 0.01506162 -0.043616727 -0.010885184 0.0010007821 -0.025084494
0.006240884 0.13560575 0.0051472713 0.033125393 -0.037936628 0.13082562 0.01698523 0.07296178
-0.013343662 0.06822627 -0.0093515245 0.021787751 0.10354812 0.010272008 -0.013183719 -0.05472188
0.00083008385 -0.036424637 -0.06631382 0.03729992 0.0046084016 0.06235392 -0.025910389 0.026194843
-0.024940917 -0.006838493 0.023867423 0.0702263 -0.00582323 -0.00068184326 -0.085157834 0.06772275
-0.032486457 -0.013134365 -0.020228073 0.04115599 -0.013181859 0.016995614 -0.052493062 -0.07592239
-0.009211508 -0.04296163 -0.024399206 -0.042661387 0.0088911075 -0.033147 -0.012803198 0.040683188
0.0109439185 -0.04162951 0.06293231 -0.020661132 -0.006789182 -0.028946731 -0.020580733 0.08326717
-0.023798678 0.08950756 -0.01747542 0.09894472 -0.012757257 -0.044795025 -0.015290945 -0.022829194
-0.009076301 0.07579309 -0.018545568 0.069645084 -0.039844174 -0.083438195 -0.0182485 -0.045669902
0.046881676 0.04263166 -0.08552611 0.021281417 0.0072317407 0.010868073 -0.086864956 -0.011465231
-0.08513526 0.040867332 0.053230274 0.05671813 -0.012413794 -0.006017623 0.08875431 0.013467495
-0.080704734 -0.07675043 0.019321194 -0.00010393144 -0.012585405 -0.006195007 -0.00045681986 0.042547666
0.06529192 0.08104926 -0.02125868 0.010437561 -0.080389865 0.021210214 0.033438135 -0.015517557
0.07756228 -0.008804952 -0.104627565 0.023179756 -0.005567741 0.05658688 0.092387326 0.029581243
-0.08882407 0.04256875 0.02218529 -0.09257497 0.081510074 0.026231397 0.002248223 0.022853497
0.072423056 0.017841173 -0.08344793 0.010509664 0.014144703 -0.0990619 0.053625382 0.0425272
-0.014183998 0.047250297 -0.08029782 0.026436761 0.03316612 -0.03232218 -0.038360633 -0.055779513

BrainDetectionModel/conv3/Conv2D f4 [128, 1, 1, 128]
00000000: cf58 9d3d 743d 8abd b540 413d 8947 013e
00000010: cc80 2e3d 065b 113d c91f 863d af98 cf3d
00000020: a54f 033e 72c4 f83d ae14 593c d752 173d
00000030: 76be cb3c 6900 303e cf7a 323d 9523 2b3d
00000040: b384 b5bd a61d bb3d a7bf 0c3d c384 de3d
00000050: f083 a83d 4b88 f03d e813 5f3e 3f78 583e
00000060: a1d0 023c 674d 083e 44b9 fe3c d0af a03d
00000070: 41f2 f53b 80d7 e8bc e7aa 783d 3072 9b3d
00000080: e882 91bc 17a0 b3bd 482f ebbc 1dbb 8b3d
00000090: efcb 633d 97e3 d8bd 8251 1f3d bcae 863c
000000a0: c329 013e a32c 343d 2b53 973d acbe 153e
000000b0: 0bef c33d bd0b d23c 4de8 843d 5643 a0bc
000000c0: 2d0f cdbc f1eb 21bd c8c6 9fba 11f5 6f3d
000000d0: 3cc7 9e3c c283 503d 9aa6 a73d 16c5 053e
000000e0: bd18 2ebd 9e90 ef3c 8b90 8c3d b5ec cf3d
000000f0: 9229 cf3d 5dac 1fbc 900f 053d f163 2d3c
00000100: d1ce 283d 345c 3a3d 3f37 893e 0d7b 043e
00000110: f507 f0bc 5933 e63c 0ff3 373e cf42 1fbd
00000120: ef9b 243e ff02 c6bd c050 e4bc 2c35 4dbb
00000130: 1dfa 143d 0733 2f3c 42bf a03c 5ccf 833e
00000140: 8116 46bd 6f4c e83c 09fe 253e 4814 173e
00000150: 6fcd 6cbc b8d8 b93d a22b 46bd 1d4c 10bd
00000160: b54c db3c d67d 5cbd 9195 2ebc 4558 07bd
00000170: 956d f43d 2b13 22bd f560 2b3d fa3a 033d
00000180: a45a b43d 0db7 053c 43a0 99bd aac3 8fbc
00000190: d5fc 00bd db0c e33d 2b5b 843c 22f3 0abe
000001a0: c22d 11be 9a22 f6bc 8c7b f03d f949 093d
000001b0: 80a1 08be 8b14 fe3d 8771 943d ca10 9d3d
000001c0: 986c 293d dc9e bc3c 83ef d63c 9de9 66bc
000001d0: cfc2 9b3d 2d9c 303d 1dff e73c 75a5 013e
000001e0: 942c 08bd 4d2b 053e 15f7 0dbd 4705 9e3a
000001f0: 6c3d 103d 5e27 993d 067a d03d 0a30 d9bc
00000200: adb7 7e3e 4967 24bd 3e3c ad3d fa64 2e3e
00000210: 0e1e 713c 628e 04be 950a 263d 723a 573e
00000220: 11ac 153e a260 ab3a c4e3 1b3e cbdc dfbd
00000230: b3d3 5fbd d563 bd3d 53e3 f13d 897c 66bd
00000240: 5538 85be 3a78 ee3c c410 633a e165 22bd
00000250: cfe8 a2bd abba b63d f94d 253e 8d09 e53d
00000260: daa2 c9bd 6514 593e 933b df3c ed91 513e
00000270: d524 0c3e 1119 b8be 4127 83bd 115b 553d
00000280: 1d15 da3d c78a 0dbe 3699 92bc 75dd 833c
00000290: eb96 12bd aa87 42be c25a 143c cddb e03d
000002a0: d56a bebb c284 a93d 06ce 2f3e 3a50 033e
000002b0: 9858 2a3e 69fa e2bd 9f40 d93d 5b94 f9bd
000002c0: fff8 94bd 8299 f33c d7d6 ecbc 25b2 453e
000002d0: 8f5d 013d 4298 9fbc 7bbe 0e3d b585 233e
000002e0: 9db6 f8bd 3d03 a6bb 6956 d3b9 09bf 073e
000002f0: 26c0 093d 87a4 703d 016d 64bb cc1c 073e
00000300: edff ba3c b389 573d 7698 7a3e bbb5 923e
00000310: 5d0c 9b3d da36 3b3e b7ef ba3d cfe7 9b3d
00000320: 8597 75bd 374d b2b9 65de 28be 237a 51be
00000330: 5c06 8c3d 4c24 e6bc 56db 073e 741f 063e
00000340: 29ec 473c 1794 efbd c993 223e 217a c43e
00000350: b1a1 8dbe d00e 813d 5f82 4fbd 8af0 f23d
00000360: c17a d3bd b6a1 aabd f0d4 45be 4faf b6bd
00000370: 244b 3e3d 9ba7 853e d67d c83d 7a69 2a3e
00000380: 26f1 2f3e 383a 29be d106 16bd 30d2 ebbd
00000390: ce6e 3e3e 571a 653d 2acf dcbd edf7 eebd
000003a0: 003e 59be 3928 ef3b 91b5 373d 7923 5a3d
000003b0: 59d4 74be 7bbb d23d 2d32 19bd a589 c13c
000003c0: e1ad 15bc d61a 1c3d 22d0 0bbd f1dd b53d
000003d0: d67b e23d 0c26 56be ef0b 4d3d f8b1 273d
000003e0: f888 14be ab68 dc3c 36ca e0bd fc2a 1fbc
000003f0: ce01 febd f2f2 aa3d 496a 823e 39e4 863d
0.076829545 -0.067500025 0.04718085 0.12624945 0.0426033 0.035487197 0.06549031 0.10136544
0.1282335 0.12146844 0.013249559 0.036944237 0.024871092 0.17187656 0.04357415 0.04178198
-0.08863201 0.09136514 0.03436246 0.10865166 0.0822829 0.11744746 0.21784937 0.2113962
0.007984311 0.13310777 0.0310942 0.078460336 0.0075056856 -0.02842307 0.06070986 0.07590139
-0.017762616 -0.08770769 -0.028709069 0.068227984 0.055614408 -0.10590284 0.03889609 0.016440742
0.12613587 0.04398788 0.0738891 0.14623517 0.09567078 0.025640363 0.0648962 -0.019563358
-0.02503165 -0.039531652 -0.0012189979 0.058583323 0.019382112 0.050906904 0.081860736 0.13063464
-0.04250406 0.029243764 0.06863507 0.1015257 0.10115351 -0.009745684 0.032485545 0.01058291
0.04121286 0.045498088 0.26799962 0.12937565 -0.02930067 0.028100656 0.17963813 -0.038882073
0.16075109 -0.0966854 -0.027870536 -0.003131221 0.03637134 0.010693318 0.019622449 0.2574414
-0.048361305 0.028356759 0.16210188 0.1475383 -0.014453276 0.09074539 -0.048381455 -0.035228837
0.026769975 -0.053830944 -0.010655777 -0.033043165 0.119349636 -0.03956906 0.041840512 0.032038666
0.08806351 0.0081613185 -0.075012706 -0.017549355 -0.03149112 0.11086436 0.016156754 -0.1356931
-0.14177611 -0.030045796 0.11742315 0.03351781 -0.13342857 0.12406262 0.07248216 0.07669218
0.04136333 0.023024969 0.026237255 -0.014093784 0.07605516 0.04311769 0.02831989 0.12660773
-0.033245638 0.13004799 -0.034659464 0.0012056016 0.035214826 0.07478212 0.10179524 -0.026512165
0.24874754 -0.040137563 0.08458756 0.17030707 0.014716638 -0.1294494 0.040537436 0.21018389
0.1461642 0.0013075063 0.15223604 -0.10930785 -0.05464525 0.09247557 0.11810937 -0.05627111
-0.2601954 0.029110063 0.0008661861 -0.03964794 -0.07954561 0.08922323 0.16143025 0.11183462
-0.098455146 0.21199186 0.027250087 0.20465823 0.13685925 -0.35956624 -0.064039715 0.0520888
0.10648558 -0.1382247 -0.017895322 0.01609681 -0.035788458 -0.18997064 0.0090548415 0.10979424
-0.005811075 0.08277275 0.17168435 0.12823573 0.16635358 -0.11082918 0.106080286 -0.121865
-0.07274055 0.029736284 -0.028911037 0.19306238 0.031583365 -0.019481782 0.034849625 0.15968974
-0.12144206 -0.005066304 -0.00040309437 0.13256468 0.033630513 0.058750656 -0.003485501 0.13194579
0.022827113 0.052621555 0.24472222 0.28654274 0.075707175 0.18282643 0.09127753 0.07612573
-0.059958953 -0.00034008335 -0.16491087 -0.20456748 0.068371505 -0.02809348 0.13267264 0.13097936
0.012202301 -0.11698168 0.15876688 0.38374427 -0.27662423 0.063016534 -0.05066144 0.118622854
-0.10326148 -0.08331625 -0.1931951 -0.08920156 0.04645838 0.26104435 0.09789626 0.16641799
0.17181835 -0.16526115 -0.036627594 -0.115146995 0.18596956 0.055933323 -0.10781701 -0.11668382
-0.21215057 0.007298496 0.04485089 0.053256486 -0.23909129 0.10289665 -0.037401367 0.023625204
-0.009135694 0.03811153 -0.034134038 0.088802226 0.11058776 -0.20912951 0.05006021 0.04094121
-0.14505374 0.026905378 -0.10976069 -0.009714838 -0.12402688 0.083471194 0.25471714 0.06586499

BrainDetectionModel/fc/MatMul f4 [1, 128]
00000000: 61c4 2d3f 5b74 203f efb9 7cbe 0987 ea3e
00000010: 34bc 223f 97ae 09bf 86dd ffbe 9002 c5be
00000020: 5e5f 333f 5bab fb3e a23c d6be 39c3 99be
00000030: 8b2b f53e 2163 e9be 69cd ef3e 2886 f73e
00000040: 6f6d e3be daf6 cdbe c4ca 4fbf 9c0c 6d3c
00000050: d31e 07bf f34e 25bf 275b 203f 4ab7 fabe
00000060: f1cc adbe f2e4 143f 3585 223f ce13 e5be
00000070: 99b2 a3be 6954 26be f8f6 0bbf 061e 6c3e
00000080: a0dc 4c3f 630f d63e 0f03 133f d98f 54bf
00000090: c43d 64bf 136d 333f 1db8 463f 4c32 cfbe
000000a0: a529 74bf b6c7 073f 8944 dfbe c6ed 3c3f
000000b0: 081e 423f 15c9 bd3e 959f a6be c48c b53e
000000c0: e509 c23e 9d86 ac3e f103 cd3e 28b0 f03e
000000d0: 5f72 54bf 60a2 fe3e ad58 b2be 0e45 f3be
000000e0: ae8c b5be abde a7be ea6d 99be 5ee4 de3e
000000f0: 06ef 693f bb35 213f 9d22 b03e 9a4e cb3e
00000100: 9cd6 ff3e 7104 08bf 8643 f03e 81ea 5ebf
00000110: 2c57 c83e 86f0 dbbd e4d1 e53e 09cf c63e
00000120: 4c59 cc3e ecbe d9be 6579 0fbf 56d7 323f
00000130: 0889 24bf 96fe 183f 3ad1 e13e fbed f63e
00000140: 061a d9be d9cb 1d3f ef2b cb3e 8556 2fbf
00000150: f8b7 ce3e e9ec af3e 1ded d13e 8546 06bf
00000160: 1f1e cabe 4901 dcbe c3a6 403f 0c92 f7be
00000170: 13f7 e93e 61d1 fbbe bfae 82be b27b 243f
00000180: 1fb9 d7be 7557 1ebf 49d6 0e3f 8a14 84bf
00000190: 60b3 34bf 4537 9abe 4ea5 bcbe eb41 d1be
000001a0: d730 9d3e 7030 243f 9274 c8be 6260 1ebe
000001b0: 0b06 07bf 63e5 fd3e 5ea8 d8be a50d f7be
000001c0: ef21 32bf f6e9 f0be 9673 d03e 780e e6be
000001d0: 198b 073f 2371 42bf b63b 393e 36aa 343f
000001e0: 9df4 403f 66cd ae3e 92e8 113f 4603 0dbf
000001f0: cdc8 5b3f b960 10bf c80a c4be 5a5a 08bf
0.67877775 0.62677544 -0.24680303 0.4580615 0.63568425 -0.5378203 -0.49973696 -0.38478518
0.70067394 0.4915417 -0.41843134 -0.30031756 0.47884783 -0.45583442 0.46836403 0.4834454
-0.4441943 -0.40227395 -0.8116877 0.014468338 -0.5278141 -0.6457359 0.6263909 -0.48967963
-0.3394542 0.5816184 0.6348451 -0.44741672 -0.31972197 -0.16243137 -0.5467372 0.23058328
0.8002415 0.41808614 0.5742654 -0.83031994 -0.89156747 0.7008831 0.77624685 -0.4046806
-0.95376045 0.5303911 -0.43606976 0.73800313 0.75827074 0.37067476 -0.32543626 0.35458958
0.37898174 0.33696452 0.4004207 0.47009397 -0.82987016 0.49733257 -0.3483328 -0.47513622
-0.35458893 -0.3278707 -0.2996667 0.43533605 0.91380346 0.6297261 0.34401408 0.39708406
0.4996842 -0.5313178 0.46926516 -0.87076575 0.39129007 -0.107392356 0.44886696 0.3882983
0.39911878 -0.42528474 -0.5604461 0.69859827 -0.64271593 0.5976347 0.4410494 0.4822844
-0.42402667 0.6163917 0.39681956 -0.68491393 0.40374732 0.34360436 0.41001216 -0.52451354
-0.39476106 -0.4296973 0.7525446 -0.48353612 0.45696315 -0.4918318 -0.25523946 0.64251244
-0.42133424 -0.618522 0.55795723 -1.0318768 -0.70586205 -0.30120292 -0.36844867 -0.40870604
0.30701324 0.6413641 -0.39151436 -0.15466455 -0.52743596 0.4958907 -0.42315954 -0.48252597
-0.6958303 -0.47053498 0.40713185 -0.44932914 0.5294662 -0.7595388 0.18089184 0.7057222
0.7537325 0.34141082 0.569955 -0.5508312 0.8585327 -0.5639759 -0.38289475 -0.53262866
